models/mnv3_detection_opt.onnx (onnx, 568302 bytes, 140 tensors)

ConvBnFusion_BN_B_blocks.1.0.bn1.bias_7 f4 [32]
0	0x3f1e8e6e	0.6193608
1	0x3f171102	0.59010327
2	0x3eac1b08	0.33614373
3	0x3f028ad5	0.5099309
4	0x3f721776	0.9456705
5	0x3f373295	0.7156156
6	0x3d85e56c	0.065378994
7	0x3f34be68	0.70603037
8	0x3f6313df	0.88702196
9	0x3f1f08ce	0.6212281
10	0x3e7f0706	0.24905023
11	0xbe8c1656	-0.2736079
12	0x3f309312	0.6897441
13	0x3edf5e1d	0.4362649
14	0x3f12d133	0.5735046
15	0x3f8ffef4	1.124968
16	0xbe56fecc	-0.20995635
17	0xc0015640	-2.0208893
18	0xbdc3d054	-0.0956122
19	0x3ac25d00	0.0014828742
20	0x3ee0a0c9	0.4387267
21	0x3edc510d	0.43030587
22	0xbf78355f	-0.9695644
23	0x3e856c8a	0.2605937
24	0x3ed4ff2b	0.41600928
25	0x3f2670bb	0.65015763
26	0xbf07be15	-0.5302442
27	0x3f73827a	0.95120966
28	0x3f3d97ec	0.7405994
29	0x3dc63911	0.09678853
30	0xbfb0fa18	-1.3826323
31	0x3ee67229	0.45008972

ConvBnFusion_W_blocks.0.0.conv_pw.weight_4 f4 [8, 8, 1, 1]
0	0xbed11087	-0.40832922
1	0x3d1d3e9e	0.038389795
2	0x3e236764	0.15957409
3	0x3e32af1a	0.17449608
4	0x3e80507a	0.250614
5	0xbe492488	-0.19642842
6	0xbe764e4a	-0.24053302
7	0x3eb061b7	0.3444955
8	0x3e3709d8	0.17874849
9	0xbec06a21	-0.3758097
10	0x3f0cd659	0.5501457
11	0x3e7d8c20	0.24760485
12	0xbd841e5f	-0.06451105
13	0xbc44ae22	-0.012004407
14	0x3f4e63f5	0.8062127
15	0x3f3ae2c8	0.7300229
16	0xbe9ed269	-0.31019905
17	0x3ee1ac2e	0.44076675
18	0x3f441316	0.7659162
19	0x3ee14462	0.43997484
20	0x3f14f1a8	0.5818124
21	0x3e4dbf22	0.20092443
22	0xbe9d57be	-0.30731004
23	0x3e7dbe18	0.24779546
24	0xbdf00758	-0.11720151
25	0xbf9c3c34	-1.2205873
26	0x3e6d6a18	0.23185003
27	0x3e48e23e	0.19617555
28	0x3e80b06d	0.25134602
29	0x3d8839e6	0.06651668
30	0x3d513f6a	0.051085867
31	0xbf36ce31	-0.71408373
32	0x3e3984a5	0.18117006
33	0xbe2ff56b	-0.17183463
34	0xbf0f83d4	-0.5606053
35	0x3ead1252	0.3380304
36	0xbf080958	-0.5313926
37	0xbec78c72	-0.3897434
38	0x3f0a65d2	0.54061615
39	0x3ea67a80	0.32515335
40	0xbf309102	-0.68971264
41	0xbc75fad1	-0.015013413
42	0xbf2692d0	-0.6506777
43	0x3ef8282a	0.48468143
44	0xbe4fea67	-0.20304261
45	0xbf68f211	-0.90994364
46	0xbe8e014e	-0.2773537
47	0x3f1739cd	0.5907257
48	0x3e4fc300	0.2028923
49	0xbd3401c2	-0.04394699
50	0x3de17389	0.11008365
51	0xbf0aff21	-0.54295546
52	0x3eab0d0e	0.33408397
53	0xbf388b8d	-0.7208794
54	0x3e09d489	0.13459982
55	0x3f0ebd9f	0.5575809
56	0x3c3b8b00	0.011446714
57	0x3e6628c9	0.22476496
58	0xbe1521c3	-0.1456366
59	0x3ecf65b0	0.4050727
60	0x3daecdea	0.08535369
61	0x3f2f12a7	0.68387836
62	0x3ebef949	0.37299564
63	0xbe3d3169	-0.1847588

ConvBnFusion_W_blocks.2.2.conv_pwl.weight_34 f4 [8, 24, 1, 1]
0	0x3e8035e9	0.2504113
1	0x3ec0ac40	0.37631416
2	0xbf2a7f97	-0.66600937
3	0xbe5fba25	-0.21848352
4	0x3e85a32b	0.2610105
5	0xbdc2c9fb	-0.09511181
6	0x3e806d4c	0.25083387
7	0xbe735b46	-0.23765287
8	0xbe0b3ef5	-0.13598235
9	0xbe0c65eb	-0.13710754
10	0xbd2f6151	-0.042817418
11	0x3ec6f45a	0.388583
12	0x3df812de	0.12112974
13	0xbeb47aa4	-0.35249817
14	0xbf315ab6	-0.6927904
15	0x3ddfa4f5	0.10920135
16	0xbd26dd29	-0.04073826
17	0xbefcd838	-0.49383712
18	0x3ef9eb0e	0.48812145
19	0xbebef453	-0.3729578
20	0xbe7efb80	-0.24900627
21	0xbe137732	-0.14400938
22	0xbeee01f5	-0.46485868
23	0xbf232610	-0.63729954
24	0xbe25c558	-0.16188562
25	0xbe1fe1f2	-0.15613535
26	0x3eba4ffe	0.36389154
27	0x3ef49921	0.47773078
28	0xbeb990cc	-0.36243284
29	0x3f204128	0.6259942
30	0xbe5ea387	-0.21742068
31	0xbec1fcbc	-0.37888134
32	0xbd071f5e	-0.0329889
33	0x3db99e18	0.09063357
34	0x3ce04ac6	0.027379405
35	0x3c99b1ed	0.0187616
36	0xbec92d7b	-0.3929251
37	0xbedc4b00	-0.4302597
38	0xbeb3d490	-0.3512311
39	0x3e9aad98	0.30210567
40	0x3e152e94	0.1456855
41	0xbe0a4a9f	-0.13505028
42	0x3e9bec15	0.30453554
43	0xbe4e6fb4	-0.20159799
44	0xbf2256ca	-0.6341368
45	0xbe7339ec	-0.23752564
46	0x3e87aa58	0.2649715
47	0xbebe41ce	-0.3715958
48	0x3deadea0	0.114682436
49	0x3eaf6d06	0.34262866
50	0xbea3b497	-0.31973717
51	0x3d695ee3	0.056975257
52	0xbd3a7968	-0.04552594
53	0xbd81418f	-0.063113324
54	0x3e6f1811	0.23349024
55	0xbdf0c0a7	-0.117554955
56	0x3e0df718	0.1386379
57	0x3e729de3	0.23693042
58	0x3f018bee	0.5060414
59	0x3f03c2ad	0.51468927
60	0xbde4f575	-0.1117963
61	0x3e81df56	0.25365704
62	0xbefd2bd2	-0.49447495
63	0x3eb2f0c7	0.34949324
64	0xbcd4a3d6	-0.02595703
65	0xbef9253a	-0.48661214
66	0x3dcca639	0.09992642
67	0xbd894de1	-0.06704307
68	0xbe8941ad	-0.2680792
69	0xbf28cf38	-0.6594119
70	0xbe292e90	-0.16521668
71	0x3d80b4e3	0.062845014
72	0xbf0c9667	-0.54916996
73	0x3f3e16dd	0.74253637
74	0xbe38bb57	-0.18040214
75	0x3e6be41d	0.23036237
76	0xbeb116e9	-0.34587792
77	0x3e95daa6	0.29268378
78	0x3e179065	0.14801176
79	0x3cb67950	0.022274643
80	0xbe7643c8	-0.24049294
81	0x3ea0fa6c	0.31441057
82	0xbe498f3d	-0.19683547
83	0xbe6a3d5e	-0.22874972
84	0xbe1f89b1	-0.15579869
85	0x3e13f960	0.14450598
86	0xbeab1325	-0.33413044
87	0x3df4b16d	0.11947904
88	0xbd85dd22	-0.06536318
89	0xbd49ae67	-0.04923859
90	0x3e5238fc	0.2052955
91	0x3c2e0856	0.010622105
92	0xbeeb5d71	-0.45969728
93	0x3ea85490	0.32877016
94	0xbe3dc0a4	-0.18530518
95	0xbee6c51a	-0.45072252
96	0xbe0b3651	-0.13594939
97	0x3f1ff92e	0.62489593
98	0x3c0069e4	0.007837746
99	0x3ebecad2	0.37264115
100	0x3cd64350	0.026155144
101	0xbe6e9368	-0.23298419
102	0x3f443371	0.76640993
103	0xbf067795	-0.5252622
104	0xbf113c37	-0.56732506
105	0x3ef6febd	0.48241225
106	0xbe07f6cb	-0.13277738
107	0x3ee40d80	0.4454155
108	0x3f115ba6	0.5678047
109	0xbe9c6d28	-0.3055203
110	0x3e512a5e	0.20426318
111	0x3f14ebb1	0.58172137
112	0xbd87d024	-0.066314965
113	0xbec83fb8	-0.39111114
114	0x3d869322	0.06571032
115	0x3e320786	0.17385682
116	0xbeb9dffe	-0.36303705
117	0xbf548606	-0.83017004
118	0xbde2a47a	-0.11066528
119	0xbebfd11e	-0.3746423
120	0x3f072725	0.52794105
121	0x3e550249	0.20801653
122	0xbf0a2589	-0.53963524
123	0x3d46693f	0.048440214
124	0xbd8fd1f6	-0.07022469
125	0x3e11f3d2	0.14253166
126	0xbea93319	-0.33046797
127	0xbe93004e	-0.2871117
128	0x3eba0df6	0.36338776
129	0xbe260cdc	-0.16215843
130	0x3e0ca3ee	0.13734409
131	0x3f182ed0	0.5944643
132	0xbe2291a1	-0.15875866
133	0x3e282aee	0.16422626
134	0x3e9e63f5	0.30935636
135	0x3e0e7fe9	0.13915981
136	0x3f0d0bfa	0.550964
137	0x3e777212	0.24164608
138	0xbd904384	-0.070441276
139	0xbedfcab4	-0.43709338
140	0x3d562ed4	0.052290753
141	0x3d3a243d	0.045444716
142	0x3f550ca4	0.83222413
143	0x3e2ae76f	0.16689847
144	0x3ee5100e	0.4473881
145	0xbf75d886	-0.96033514
146	0x3eb6796f	0.3563952
147	0xbed93a48	-0.42427278
148	0xbe90107b	-0.28137574
149	0x3f20f684	0.62876153
150	0x3d4e6141	0.050385717
151	0x3eb2d3fd	0.3492736
152	0x3ed56c43	0.4168416
153	0xbea31880	-0.3185463
154	0xbf26e206	-0.65188634
155	0xbe14af3b	-0.1451997
156	0xbec6d82b	-0.38836798
157	0xbe375965	-0.17905195
158	0x3eb8943e	0.360506
159	0xbf279e9a	-0.6547638
160	0x3e7c3079	0.24627866
161	0xbe8c5923	-0.27411756
162	0x3ea13422	0.31485087
163	0xbef02f0b	-0.4691089
164	0x3ed436fa	0.41448194
165	0xbc99b435	-0.018762687
166	0xbea7eaa7	-0.32796213
167	0x3d67387f	0.056450363
168	0x3e454d77	0.19267832
169	0x3e81a507	0.25321218
170	0x3e1c0016	0.15234408
171	0x3dd51c18	0.10405749
172	0x3e10f7d8	0.14157045
173	0x3e4a8ef5	0.19781096
174	0x3db5ebe7	0.088828854
175	0xbf12d491	-0.573556
176	0x3bee1f4e	0.0072669154
177	0x3ede101d	0.43371668
178	0x3d12b957	0.035821285
179	0xbe184dcf	-0.14873432
180	0x3e05e164	0.13074261
181	0xbdd89725	-0.105757035
182	0x3e3cdeb3	0.18444328
183	0xbddd5649	-0.10807473
184	0x3e0a15d4	0.1348489
185	0xbe500c89	-0.20317282
186	0xbea53fbc	-0.32275188
187	0x3ec7e567	0.39042208
188	0xbe2e81ca	-0.17041698
189	0xbdc3a41f	-0.09552788
190	0xbe4c993a	-0.19980326
191	0x3d895c36	0.06707041

ConvBnFusion_W_blocks.1.1.conv_pw.weight_12 f4 [24, 8, 1, 1]
0	0xbe8fb4d3	-0.28067645
1	0xbe0f704a	-0.14007679
2	0x3e296569	0.16542591
3	0x3e34aed1	0.17644812
4	0xbd4334c5	-0.047657747
5	0x3d095e0b	0.033536952
6	0xbecbe530	-0.39823294
7	0xbe672c10	-0.22575402
8	0x3e07b4d9	0.13252582
9	0x3d34c601	0.044134144
10	0x3e7770b2	0.24164084
11	0xbd42e980	-0.047585964
12	0xbebf848f	-0.37405822
13	0xbe37de05	-0.17955787
14	0xbd78be9f	-0.060728665
15	0x3e1ce621	0.15322162
16	0xbebc2ef2	-0.36754566
17	0xbe55354d	-0.20821114
18	0x3e9b40c4	0.3032285
19	0xbd727777	-0.05919596
20	0xbd918b64	-0.07106665
21	0xbd413ee6	-0.047179125
22	0xbddaba79	-0.10680098
23	0x3e84511b	0.2584313
24	0x3b86dcb3	0.004115665
25	0x3b8641d0	0.004097201
26	0x3b9f149d	0.004854752
27	0xbbcfa2ca	-0.0063365446
28	0xbd3889fa	-0.04505346
29	0x3db03e23	0.08605602
30	0xbd1f1516	-0.03883847
31	0xbd649949	-0.055810247
32	0x3ef936c9	0.4867461
33	0x3e8e55d2	0.2779985
34	0xbe6c010e	-0.23047277
35	0x3e959023	0.2921153
36	0x3d3c0fd0	0.045913517
37	0xbe2e2009	-0.17004408
38	0xbdbaa177	-0.09112828
39	0xbdb5b36b	-0.08872112
40	0xbe889737	-0.26677868
41	0xbe676b73	-0.22599582
42	0x3f759df3	0.95944136
43	0xbe8a40be	-0.2700252
44	0xbe51b10d	-0.20477696
45	0xbf902e81	-1.1264192
46	0x3ea404b9	0.32034853
47	0xbe72f06b	-0.23724525
48	0x3e6ccaae	0.23124191
49	0x3e86e878	0.26349235
50	0xbed16040	-0.40893745
51	0x3f10f980	0.56630707
52	0x3d7db62d	0.061941314
53	0xbe33e53f	-0.17567919
54	0x3dbf0f94	0.09329143
55	0x3e934a96	0.28767842
56	0xbeb839cb	-0.35981593
57	0xbe34e677	-0.1766604
58	0xbe875cd6	-0.26438016
59	0x3e99f5ae	0.3007025
60	0xbe8d0e98	-0.27550197
61	0xbe66d525	-0.22542246
62	0x3e3aaeb4	0.18230706
63	0xbec64974	-0.38727915
64	0x3e9a6852	0.30157715
65	0x3e379be6	0.17930564
66	0xbdc0a8b3	-0.09407177
67	0xbd7c4678	-0.06159064
68	0x3def5233	0.116856
69	0xbd4ac6be	-0.04950594
70	0x3e0ff157	0.14056908
71	0x3daedeac	0.08538565
72	0x3e16fa5b	0.1474394
73	0x3e9e4ff4	0.30920374
74	0x3d069f04	0.032866493
75	0x3d149fe9	0.036285315
76	0x3eacddcc	0.33762968
77	0x3eb8156d	0.35953847
78	0x3d92d554	0.07169595
79	0x3cf9c71a	0.030490447
80	0xbc9743f5	-0.018465022
81	0xbd18239b	-0.03714333
82	0xbdf0f7e9	-0.11766035
83	0x3d429d34	0.0475132
84	0x3d144445	0.03619792
85	0x3e4fa7be	0.20278832
86	0x3d51844e	0.051151566
87	0xbd2618bc	-0.040550932
88	0xbe376f8c	-0.17913646
89	0x3de13c7d	0.10997865
90	0x3e192cf0	0.14958549
91	0xbe179014	-0.14801055
92	0xbd414055	-0.047180492
93	0xbd107679	-0.035269234
94	0xbc9ed349	-0.019387858
95	0xbe2edafc	-0.17075723
96	0xbe2becc6	-0.1678954
97	0x3d98d547	0.074625544
98	0x3e447df9	0.1918868
99	0xbd4ee91b	-0.050515275
100	0x3e992687	0.29912207
101	0xbe0fca5a	-0.14042035
102	0xbecfbd32	-0.40574032
103	0x3d12ea7d	0.035868157
104	0x3bc07df5	0.0058743902
105	0xbdba6423	-0.09101131
106	0x3e9d1475	0.3067967
107	0xbef3b16a	-0.47596294
108	0xbd247e76	-0.040159665
109	0xbe0fa954	-0.14029437
110	0xbdf7cf8f	-0.121001355
111	0xbefe6656	-0.4968745
112	0xbc3b595b	-0.011434878
113	0x3e90bf3f	0.2827091
114	0x3df22e96	0.11825292
115	0x3dd51928	0.10405189
116	0xbdc58eac	-0.09646353
117	0x3ed036e4	0.40666878
118	0xbe40eeff	-0.1884117
119	0xbe4b6df1	-0.19866158
120	0xbf482aa8	-0.7819009
121	0xbec1d87e	-0.37860483
122	0xbe829f29	-0.25512055
123	0x3f37da7a	0.71817744
124	0xbe095553	-0.13411455
125	0xbd1c6ee9	-0.03819171
126	0x3e87ee10	0.26548815
127	0x3f613305	0.87968475
128	0xbf0211b5	-0.5080827
129	0x3dabe7a1	0.08393789
130	0xbe0e1ba6	-0.13877735
131	0x3e1f5cdc	0.15562767
132	0x3f374044	0.71582437
133	0xbe7f6da1	-0.24944164
134	0x3ea4ce06	0.32188433
135	0xbdc7a69f	-0.09748577
136	0x3d89f931	0.067369826
137	0xbc1a03b9	-0.009400302
138	0x3e18a37c	0.14906114
139	0x3e89388f	0.26800963
140	0xbc89e62e	-0.016833391
141	0x3e6833e0	0.22676039
142	0x3e2bc091	0.16772677
143	0xbdd8439c	-0.105597705
144	0xbe7cc48c	-0.24684352
145	0x3e7d7961	0.24753334
146	0x3e2da4de	0.16957423
147	0x3e0c3d28	0.13695204
148	0xbd76a4e2	-0.06021584
149	0x3eab018d	0.3339962
150	0x3e442e87	0.19158374
151	0xbd880e3c	-0.0664334
152	0xbd549fd8	-0.05191025
153	0x3df2f530	0.11863172
154	0x3d3adcff	0.045620915
155	0x3e7cfdeb	0.24706237
156	0xbe75ad58	-0.23991907
157	0xbf051217	-0.5198073
158	0xbe065533	-0.13118438
159	0x3cada6a9	0.021197634
160	0x3eaed2c9	0.3414519
161	0x3df5d04c	0.1200262
162	0xbddf0ffe	-0.10891722
163	0x3e633753	0.22189073
164	0xbec71b5c	-0.3888806
165	0xbeb5b021	-0.35485938
166	0x3f2a2aad	0.6647137
167	0x3e8f9025	0.2803966
168	0x3e824ea2	0.25450617
169	0xbe814fde	-0.25256246
170	0xbe57ab6c	-0.21061486
171	0x3d36ed5f	0.04465997
172	0xbd0221ad	-0.031770397
173	0xbb93c845	-0.004509958
174	0x3d563ac7	0.05230215
175	0x3df30a56	0.11867206
176	0x3e88e3e8	0.2673638
177	0x3e022964	0.12711102
178	0x3eaa5f6e	0.33275932
179	0x3daf84ff	0.08570289
180	0xbd1ce009	-0.038299594
181	0x3cc6ea96	0.024281781
182	0x3d487bc9	0.048946176
183	0xbe067f79	-0.13134564
184	0xbe7c5687	-0.24642383
185	0x3c8b7e1f	0.017027913
186	0x3c7a9a69	0.015295603
187	0xbe82b6ba	-0.25530034
188	0xbe8ab0b2	-0.27087933
189	0xbe7d31a6	-0.2472597
190	0xbdc83342	-0.09775402
191	0x3e12345d	0.14277788

ConvBnFusion_W_blocks.3.0.conv_dw.weight_38 f4 [48, 1, 3, 3]
0	0xc0425e74	-3.037015
1	0xc0495e31	-3.146374
2	0x3fe05bd7	1.7528027
3	0xc08007a5	-4.000933
4	0xc0235f36	-2.5526862
5	0x40c788f0	6.235466
6	0xc014e73d	-2.3266137
7	0xbeb485f7	-0.35258457
8	0x40a05f98	5.011669
9	0xbd0e95bd	-0.03481077
10	0x3da3c019	0.07995624
11	0x3d45f425	0.048328537
12	0x3dd5c0e2	0.1043718
13	0x3eaf4b9b	0.3423737
14	0x3e6e5e4f	0.23278163
15	0x3e5c7ada	0.21531239
16	0x3ed162a8	0.4089558
17	0x3e7d4f86	0.24737367
18	0xbf3c0305	-0.7344211
19	0xbf864dc0	-1.0492477
20	0xbf8210b4	-1.0161347
21	0x3ef6507f	0.4810829
22	0x3f2088c0	0.62708664
23	0x3ebb7533	0.36612853
24	0xbcc14e8b	-0.023597023
25	0x3dca9612	0.09891905
26	0xbd30e378	-0.04318568
27	0xbd75329a	-0.05986271
28	0xbeb3d432	-0.3512283
29	0xbf063ada	-0.5243355
30	0xbe9a0dfc	-0.30088794
31	0xbf52b264	-0.8230345
32	0xbf3ab932	-0.72938836
33	0xbea8a027	-0.32934687
34	0xbebdb265	-0.37050167
35	0xbe6dfa06	-0.23239908
36	0xbe1ce4fd	-0.15321727
37	0xbe29facd	-0.16599579
38	0xbdd1b33f	-0.102392666
39	0xbeaa57f9	-0.33270243
40	0xbeab76c5	-0.3348905
41	0xbe933782	-0.28753287
42	0xbecef978	-0.40424705
43	0xbef3fb62	-0.47652727
44	0xbe8fb765	-0.28069606
45	0x3f333d86	0.7001575
46	0x3f9e7750	1.2380161
47	0x3f738653	0.9512684
48	0x3eeafde8	0.4589684
49	0x3f8d3fab	1.1035055
50	0x3f25f9f2	0.6483451
51	0xbefdc9d0	-0.49568033
52	0xbea37697	-0.31926414
53	0xbc1b9495	-0.009495874
54	0xbf344c1d	-0.7042864
55	0x3d10424b	0.035219472
56	0xbfc8df76	-1.5693195
57	0xbcb624a9	-0.022234278
58	0x3f5cc53a	0.86238444
59	0xbe68eb32	-0.2274597
60	0x3f3f4839	0.7471958
61	0x400d9614	2.212285
62	0x3f85cc97	1.0453061
63	0xbf212bfc	-0.6295774
64	0xc00d6d95	-2.2098134
65	0xbf4306ac	-0.76182055
66	0x3fa78e4f	1.3090304
67	0xbf7f4d71	-0.9972754
68	0xc013f276	-2.3116736
69	0x3fd32d3a	1.6498177
70	0x4022113f	2.5323026
71	0x3f0da1b4	0.55324864
72	0xbe6e5080	-0.23272896
73	0xbf01136e	-0.5042027
74	0xbec7812b	-0.38965735
75	0xbe8d2042	-0.27563673
76	0xbef4d401	-0.47817996
77	0xbee0cf67	-0.43908235
78	0xbb1b8874	-0.0023732455
79	0xbdb0a64f	-0.08625471
80	0xbe011926	-0.1260725
81	0xbe2c02ab	-0.16797893
82	0xbe8d6da3	-0.2762271
83	0xbd12b729	-0.035819206
84	0xbe1daaa2	-0.15397123
85	0xbecc6ad5	-0.39925256
86	0xbea866fd	-0.32891074
87	0xbddcf97f	-0.10789775
88	0xbec27a4f	-0.3798394
89	0xbef35a5c	-0.47529876
90	0x3f030d5e	0.5119227
91	0x3f26274a	0.649037
92	0x3eafe5e0	0.34355068
93	0x3f862e15	1.0482813
94	0x3f7c471c	0.98546004
95	0x3ee99b41	0.45626262
96	0x3f630d6a	0.88692343
97	0x3f3a9dd0	0.7289705
98	0x3e91db93	0.28487834
99	0xbf87ef24	-1.0619855
100	0xbf8ec858	-1.115489
101	0xbf7ea36a	-0.994681
102	0x3f472d8b	0.7780387
103	0x3ff7c7d2	1.9357855
104	0x3f6732d6	0.90311944
105	0xbf49aa72	-0.78775704
106	0xbf5c736a	-0.8611361
107	0xbebd33de	-0.36953634
108	0xbdcabb3e	-0.09898995
109	0x3ec754d0	0.38931894
110	0x3ec22a42	0.37922865
111	0x3eb15c7c	0.34640872
112	0x3f16327f	0.586708
113	0x3edc23f3	0.42996177
114	0x3f051501	0.51985174
115	0x3e9e405a	0.3090847
116	0x3e3df4f9	0.18550481
117	0xbf07cdd3	-0.5304844
118	0xbe6ac3b4	-0.22926217
119	0x3f27695d	0.65395147
120	0xbe8ec634	-0.27885592
121	0x3eb14924	0.34626114
122	0x3f29a0d4	0.6626103
123	0x3f04a16c	0.5180881
124	0x3f2f759e	0.68538845
125	0x3ef38479	0.47562006
126	0x3cd32b11	0.025777372
127	0x3ede97eb	0.4347528
128	0x3ee88dcf	0.4542069
129	0xbd709e7e	-0.0587449
130	0x3ed9bf4c	0.4252876
131	0x3ee7ba70	0.45259428
132	0xbe5fcda9	-0.21855797
133	0x3d8bd2ca	0.06827314
134	0x3e6fdff3	0.23425274
135	0xbf070678	-0.52744246
136	0xbf5e473f	-0.8682746
137	0xbf08ece5	-0.5348647
138	0xbd0dcfa2	-0.034621842
139	0x3e49e188	0.1971494
140	0x3f168f23	0.5881216
141	0x3f4fb53e	0.8113593
142	0x3fbdf41e	1.4840124
143	0x3fb2244d	1.3917328
144	0xbd2192e8	-0.03944674
145	0xbea652d3	-0.32485065
146	0xbeea1351	-0.45717862
147	0xbed5bcf3	-0.4174572
148	0xbf0b939f	-0.54522127
149	0xbee48c4f	-0.44638297
150	0xbf07d4ac	-0.53058887
151	0xbea28078	-0.3173864
152	0xbe3f3cf4	-0.18675596
153	0x3e83e236	0.25758523
154	0x3f46dc52	0.7767993
155	0x3eb8d1de	0.36097616
156	0xbef87214	-0.48524535
157	0xbf57b17a	-0.8425518
158	0xbf15a0b1	-0.5844832
159	0xbecd2b2a	-0.40071994
160	0xbf4bb6dc	-0.79575896
161	0xbf92e9da	-1.1477616
162	0xbec5a5c4	-0.38603032
163	0xbeae1104	-0.33997357
164	0xbe5294bc	-0.2056455
165	0x3e08ce21	0.13359882
166	0x3ec5eaee	0.386558
167	0x3e5ea9e2	0.21744493
168	0x3eaee6bd	0.34160414
169	0x3f33bf70	0.70213985
170	0x3eb56fc3	0.3543683
171	0x3ec00fe4	0.37512124
172	0x3eff272d	0.49834576
173	0x3eb419a8	0.35175824
174	0x3ee9314c	0.45545423
175	0x3f200464	0.625067
176	0x3ebced71	0.36899903
177	0x3e5f47ee	0.21804783
178	0x3eb77143	0.358286
179	0x3e0aed60	0.13567114
180	0xbe05bddf	-0.13060711
181	0xbde1f11c	-0.11032316
182	0xbe40dcff	-0.18834303
183	0xbe4e0528	-0.20119154
184	0xbe8b686e	-0.2722811
185	0xbe8d5fe4	-0.2761222
186	0xbe19ab71	-0.15006806
187	0xbe673ef6	-0.22582611
188	0xbd25f755	-0.040519077
189	0xbe854e06	-0.2603609
190	0xbd90bdd2	-0.07067455
191	0x3e964d06	0.2935564
192	0xbe302a4a	-0.17203632
193	0x3eeb123b	0.45912346
194	0x3f50dd2f	0.815875
195	0x3e0ac74e	0.13552591
196	0x3f19757a	0.5994488
197	0x3f27d0b2	0.6555282
198	0xbdca6827	-0.09883147
199	0xbe2981ce	-0.16553423
200	0xbdc84c5c	-0.097801894
201	0xbe27c024	-0.1638189
202	0xbe7426dc	-0.23842949
203	0xbe7beaab	-0.24601237
204	0xbe04a9a6	-0.1295534
205	0xbe6ce8f2	-0.23135737
206	0xbe16d53e	-0.14729783
207	0xbea3ac7f	-0.31967542
208	0x3cc7778c	0.024348997
209	0x3e9fe4b4	0.31229174
210	0xbe74a75f	-0.23891972
211	0xbe9d5d0f	-0.3073506
212	0x3ed2f4a3	0.41202268
213	0x3da48293	0.080327176
214	0xbf336270	-0.7007208
215	0x3e9547fd	0.29156485
216	0x3da8ffdf	0.082519285
217	0xbe194000	-0.1496582
218	0xbe9016fd	-0.2814254
219	0xbdea59f4	-0.114429384
220	0xbeefdada	-0.46846658
221	0xbeb82b45	-0.35970512
222	0xbe27d148	-0.16388428
223	0xbebcb43d	-0.3685626
224	0xbe8580db	-0.2607487
225	0x3bb0ba08	0.0053932704
226	0xbe84ff71	-0.25976136
227	0xbedd695e	-0.4324445
228	0xbe39d26a	-0.18146673
229	0xbee675b8	-0.45011687
230	0xbec2857c	-0.37992465
231	0xbec19c53	-0.37814578
232	0xbe990612	-0.29887444
233	0xbe14ece3	-0.1454349
234	0xbe49ca8a	-0.19706169
235	0xbd814571	-0.06312073
236	0x3b9b7a80	0.0047448277
237	0xbf128401	-0.5723267
238	0xbf225fa7	-0.63427204
239	0x3eb03f83	0.34423456
240	0xbf0ee0b0	-0.55811596
241	0xbf68c534	-0.9092591
242	0x3e918761	0.28423598
243	0x3e66db6d	0.22544642
244	0x3faebc9c	1.3651309
245	0x3fb1eb0f	1.3899859
246	0x3e9c0043	0.3046895
247	0x3fff0b54	1.9925332
248	0x3ffaadcb	1.9584287
249	0x3ded966f	0.116009586
250	0x3f3844c4	0.7197993
251	0x3f49a63e	0.7876929
252	0x3e06e8e4	0.13174778
253	0x3d94367c	0.072369546
254	0xbc540e06	-0.012942797
255	0xbd206552	-0.039159127

ConvBnFusion_W_blocks.1.1.conv_pwl.weight_16 f4 [8, 24, 1, 1]
0	0x3f17b1fb	0.5925595
1	0xbec0d231	-0.37660363
2	0x3f0dccbf	0.5539054
3	0xbe0edaec	-0.139507
4	0xbe339b10	-0.1753962
5	0xbf2120a3	-0.62940425
6	0xbea78527	-0.32718775
7	0xbe2949e9	-0.165321
8	0xbbc4fa5f	-0.006011292
9	0x3e5bdc95	0.21470864
10	0xbe44f7d0	-0.19235158
11	0x3e9f8479	0.31155756
12	0xbe2716f8	-0.16317356
13	0x3f13555b	0.5755212
14	0xbe3ec793	-0.18630819
15	0xbdc394d9	-0.09549875
16	0xbe92ac3e	-0.28647035
17	0xbc13e646	-0.009027069
18	0xbc898f4f	-0.016791968
19	0x3e41ae7b	0.18914215
20	0xbc00f8a0	-0.007871777
21	0xbe8f5e56	-0.2800166
22	0x397233b7	0.00023098184
23	0xbe3665aa	-0.1781222
24	0x3e015905	0.12631615
25	0x3dcc2dfd	0.09969709
26	0x3e7a6894	0.24453956
27	0xbc2099de	-0.00980231
28	0x3e27a693	0.16372137
29	0xbd3a4712	-0.045477934
30	0xbddd5e60	-0.10809016
31	0x3d1e83f0	0.038700044
32	0x3e3d5190	0.18488145
33	0x3e689341	0.22712423
34	0xbd3c3fb8	-0.045959204
35	0x3eab8ef2	0.33507496
36	0x3dadf2c3	0.08493569
37	0x3d701dc4	0.058622137
38	0xbe8e1a34	-0.27754366
39	0xbda41b89	-0.080130644
40	0xbd851415	-0.06497971
41	0x3e532687	0.20620166
42	0xbc1f3ed1	-0.009719566
43	0xbec508a9	-0.3848317
44	0xbb7d0170	-0.0038605593
45	0xbcbc432e	-0.022981253
46	0x3dfeb43c	0.12436721
47	0xbc9807b5	-0.018558362
48	0xbeb17b9f	-0.34664628
49	0xbd2a7431	-0.041614715
50	0xbeca638b	-0.3952907
51	0xbd05040a	-0.032474555
52	0xbe4a755d	-0.19771333
53	0xbe21945b	-0.1577925
54	0x3efb0b40	0.4903202
55	0xbf3e90c6	-0.74439657
56	0x3e40761e	0.18795058
57	0x3e4ce098	0.2000755
58	0x3e4dabdf	0.20085095
59	0xbf2d449a	-0.676828
60	0xbe7b8c22	-0.24565175
61	0xbebe1cf4	-0.37131464
62	0x3e56d2d5	0.20978864
63	0x3ebea05e	0.37231725
64	0xbe72109f	-0.23639153
65	0xbf7be740	-0.98399734
66	0x3cc8ae10	0.024497062
67	0xbe51fd01	-0.2050667
68	0x3ea83f05	0.3286058
69	0x3eaccda1	0.33750632
70	0x3ed8eba5	0.42367283
71	0xbf1f775e	-0.62291515
72	0xbec90e59	-0.3926876
73	0x3d23a09b	0.039948087
74	0x3dbfdd00	0.09368324
75	0xbbdf5dad	-0.006816587
76	0x3e1e49d4	0.1545785
77	0xbe1d1d1f	-0.1534314
78	0xbe7bdd5b	-0.24596159
79	0x3f0c5fe5	0.54833823
80	0x3f116281	0.5679093
81	0x3e90f1fb	0.28309616
82	0xbe925860	-0.2858305
83	0x3ef1ac97	0.47201988
84	0xbe898e26	-0.26866263
85	0xbc9f4fe6	-0.019447278
86	0xbe26c9c8	-0.16287911
87	0xbe9ad9bb	-0.3024424
88	0xbcff3a0c	-0.031155609
89	0xba47de72	-0.00076243945
90	0xbd6a3569	-0.057179842
91	0xbe3b4efb	-0.18291847
92	0x3eb1ef0d	0.34752694
93	0x3e3d47e9	0.18484463
94	0xbe11699f	-0.14200447
95	0xbdd8d7b9	-0.10588021
96	0xbca00ada	-0.019536424
97	0xbf33e873	-0.70276564
98	0x3ef35847	0.47528288
99	0xbef48320	-0.4775629
100	0x3eeaea91	0.45882085
101	0xbe328c3e	-0.1743631
102	0xbf189c1b	-0.596132
103	0xbf1f8942	-0.62318814
104	0xbed1b891	-0.40961125
105	0x3ec2c9d7	0.38044617
106	0xbec95222	-0.39320475
107	0x3f107eb9	0.56443363
108	0xbea8c706	-0.32964343
109	0x3e8549d3	0.26032886
110	0xbf022e04	-0.50851464
111	0xbee28b77	-0.44247028
112	0x3f37300f	0.71557707
113	0x3f46c1d2	0.77639496
114	0x3f03dfe6	0.51513517
115	0xbd6e835a	-0.058230735
116	0xbebeb27f	-0.37245557
117	0x3ed6a41e	0.41922086
118	0x3db55405	0.08853916
119	0x3eb8f105	0.36121383
120	0x3e151819	0.14559974
121	0xbe7a346f	-0.24434064
122	0xbd362c17	-0.04447564
123	0x3c44a199	0.0120014185
124	0x3db92c1d	0.09041617
125	0x3ef2dd51	0.47434476
126	0x3f0b00c4	0.54298043
127	0x3cb04d2c	0.021521173
128	0x3ecab9c1	0.39594844
129	0x3ebbcb35	0.36678472
130	0x3ef95f6d	0.48705617
131	0x3e33c966	0.17557296
132	0xbf215ec6	-0.6303524
133	0x3d8e637e	0.069525704
134	0xbe23ce69	-0.15996708
135	0xbe8a905a	-0.27063257
136	0x3ea7e11c	0.32788932
137	0xbe91bea7	-0.2846577
138	0xbe8225b5	-0.25419393
139	0xbe55ca2b	-0.20877902
140	0xbf017dd3	-0.5058262
141	0xbeb66263	-0.35621938
142	0xbf01a8be	-0.50648105
143	0xbf0151ba	-0.5051533
144	0x3d0c3bee	0.03423684
145	0x3dc17a4a	0.09447153
146	0xbd43a22a	-0.047762074
147	0x3e7fb66e	0.24971935
148	0xbf2d9876	-0.6781076
149	0xbee7a3b6	-0.4524209
150	0xbe14cfde	-0.1453242
151	0x3ec7c616	0.39018315
152	0x3daf688a	0.08564861
153	0x3e30af1b	0.17254297
154	0xbee1802f	-0.4404311
155	0xbbf5af02	-0.007497669
156	0x3d90f5bd	0.07078121
157	0x3d887ac2	0.06664039
158	0x3e80d826	0.25164908
159	0x3df19640	0.11796236
160	0x39886b1e	0.0002601975
161	0xbf1e82c6	-0.61918294
162	0xbe936e1b	-0.2879494
163	0xbe87ad87	-0.26499578
164	0x3eb2e84a	0.34942847
165	0xbf2dce2b	-0.6789271
166	0xbd2ba2e7	-0.041903403
167	0x3d7a9431	0.061176483
168	0x3e4ca588	0.1998502
169	0xbc4c189b	-0.012457038
170	0x3db3d025	0.08779935
171	0xbeba8647	-0.3643057
172	0x3e761a50	0.24033475
173	0x3eb72ccc	0.35776365
174	0x3eb2b31f	0.34902284
175	0xbee025be	-0.43778795
176	0xbf1a0d89	-0.60176903
177	0x3a9d7c54	0.0012015202
178	0x3f166aba	0.587566
179	0xbe0e4a85	-0.13895614
180	0xbe1768aa	-0.1478602
181	0x3f26dde4	0.6518233
182	0xbea49e93	-0.32152233
183	0xbf14ed70	-0.581748
184	0x3e5c4aa9	0.21512856
185	0x3d8f0f2d	0.069853164
186	0x3ea50e5f	0.32237527
187	0x3d01a128	0.03164783
188	0xbe20d914	-0.15707809
189	0xbde7e087	-0.11322122
190	0xbf4eacf2	-0.80732644
191	0x3f07aede	0.530012

ConvBnFusion_BN_B_blocks.2.1.bn2.bias_27 f4 [24]
0	0xbf0b71b7	-0.5447039
1	0x3f9389a8	1.1526384
2	0x3fce2db4	1.6107697
3	0xbedf379a	-0.43597108
4	0x3f353f5e	0.70799816
5	0x3f13ea96	0.57779825
6	0xbecfb64f	-0.40568778
7	0xbf26e849	-0.6519819
8	0xbf0be5f6	-0.5464777
9	0xbea524cd	-0.3225464
10	0x3faa6e20	1.3314857
11	0xbeb818b1	-0.35956338
12	0x3ee9916a	0.45618755
13	0x3f401dc8	0.7504544
14	0xbea1ff05	-0.31639877
15	0x3f31cd58	0.69453955
16	0xbf41605a	-0.75537646
17	0x3fc690a4	1.5512891
18	0xbdb149c4	-0.08656648
19	0xbecdb86b	-0.40179762
20	0x3da97c40	0.08275652
21	0x3f1296d9	0.57261425
22	0x3d9603a2	0.07324912
23	0x3e84d5ad	0.25944272

ConvBnFusion_W_blocks.2.1.conv_pwl.weight_28 f4 [8, 24, 1, 1]
0	0x3bb5cdfb	0.0055482364
1	0xbe6051f0	-0.21906257
2	0x3f26cafe	0.6515349
3	0x3f240557	0.6407065
4	0xbf36d55a	-0.714193
5	0xbe8343b2	-0.25637585
6	0xbf351e57	-0.7074942
7	0x3c14a9a6	0.00907365
8	0x3efc9699	0.49333647
9	0xbe6b0e84	-0.22954756
10	0x3e088d53	0.13335161
11	0x3e8f1466	0.2794525
12	0xbe88b85b	-0.26703152
13	0x3f886311	1.0655233
14	0xbeb57585	-0.35441223
15	0x3f09c855	0.5382131
16	0xbf11dd80	-0.5697861
17	0x3f024048	0.50879335
18	0x3e15cae7	0.14628182
19	0xbf1093ca	-0.5647551
20	0xbeb973eb	-0.3622125
21	0xbe1c56a9	-0.15267433
22	0xbe931650	-0.2872796
23	0xbf2f19cf	-0.68398756
24	0x3f97cdbe	1.1859663
25	0x3ec47653	0.38371524
26	0xbd68623a	-0.0567343
27	0x3d2aca4f	0.041696843
28	0x3dcdc895	0.100480236
29	0xbeb4320d	-0.35194436
30	0xbf128670	-0.57236385
31	0x3f4b0ba2	0.79314625
32	0xbd656b67	-0.05601063
33	0xbe400728	-0.1875273
34	0xbe491c52	-0.1963971
35	0x3e843f77	0.2582967
36	0x3f1f8a75	0.62320644
37	0xbc4fc86c	-0.012682062
38	0xbed12773	-0.4085041
39	0xbf06dc17	-0.5267958
40	0x3e08c81e	0.13357589
41	0x3ca949e4	0.020665117
42	0x3f4021e5	0.7505172
43	0xbed2f2bb	-0.41200814
44	0x3d960f99	0.07327194
45	0x3f050c95	0.51972324
46	0xbec9b462	-0.39395434
47	0x3ede206a	0.43384105
48	0x3e87a71e	0.26494688
49	0x3f206744	0.6265757
50	0xbc320fb1	-0.010867999
51	0x3f5eedf1	0.8708182
52	0xbe8f0202	-0.2793122
53	0xbeefb0f2	-0.46814686
54	0xbf46b7b3	-0.7762405
55	0xbdfea4ef	-0.12433802
56	0xbe885004	-0.26623547
57	0xbee49c16	-0.44650334
58	0xbeb2497f	-0.34821698
59	0x3d6eb989	0.05828241
60	0x3e93d048	0.28869843
61	0x3f09c522	0.53816426
62	0x3e821b63	0.2541152
63	0x3f3f2e63	0.74680156
64	0x3e84e73e	0.25957674
65	0xbd1074f2	-0.035267778
66	0xbf1702a6	-0.58988416
67	0xbf494e3f	-0.7863502
68	0xbf4a111a	-0.78932345
69	0xbf1ca379	-0.6118694
70	0xbee22577	-0.44169208
71	0xbd80f5d7	-0.0629689
72	0xbe9d1304	-0.3067857
73	0x3ec6e697	0.388478
74	0xbea29302	-0.31752783
75	0x3d7e9cef	0.062161382
76	0xbf12f676	-0.5740732
77	0x3e520fbe	0.20513818
78	0xbe0bce9f	-0.13653038
79	0xbdd85319	-0.105627246
80	0xbef419fd	-0.47676077
81	0xbe3ae858	-0.18252695
82	0x399f8376	0.0003042479
83	0x3da8b1b9	0.08237023
84	0x3f6f8780	0.9356613
85	0x3ecde6a0	0.40215015
86	0x3e7730cd	0.2413971
87	0x3cac7197	0.021050258
88	0xbe7b8b93	-0.24564962
89	0x3ede5483	0.43423852
90	0x3ec3cd0e	0.38242382
91	0x3f0a06f2	0.5391685
92	0x3f054aba	0.5206715
93	0x3df803c1	0.12110091
94	0xbf047a1a	-0.5174881
95	0x3e254bf4	0.16142255
96	0xbb84c226	-0.0040514646
97	0xbe09f5f7	-0.13472734
98	0x3e63b351	0.22236373
99	0x3db756a0	0.08952069
100	0xbf4f90c3	-0.81080264
101	0x3dd84c2f	0.10561406
102	0xbed8decc	-0.4235748
103	0x3eb387ad	0.3506445
104	0xbf1a8daa	-0.6037241
105	0xbea1a494	-0.31570876
106	0xbf327920	-0.6971607
107	0xbed94141	-0.42432597
108	0xbe4edcb4	-0.20201379
109	0x3e6bedef	0.23039983
110	0x3efb6b57	0.4910533
111	0x3e45ea39	0.1932763
112	0xbecaa60c	-0.3957981
113	0x3f3c33b8	0.73516417
114	0x3e6e8f52	0.2329686
115	0xbe94cdd0	-0.29063272
116	0xbf098608	-0.5372014
117	0xbe11e880	-0.14248848
118	0x3ea41cff	0.32053372
119	0x3f838672	1.0275404
120	0x3ecf3d4a	0.40476447
121	0xbf25a181	-0.6469956
122	0xbed65760	-0.41863537
123	0xbf0e97ef	-0.5570058
124	0x3e1a0726	0.1504179
125	0x3f5b8123	0.8574392
126	0xbcde3567	-0.027125074
127	0x3e596e48	0.21233475
128	0x3e4e9061	0.20172264
129	0x3e331ed4	0.17492229
130	0x3cc43862	0.023952667
131	0x3ea08df1	0.31358293
132	0x3f021ffc	0.50830054
133	0x3efab497	0.48965904
134	0xbee9ecda	-0.45688516
135	0xbf0759ef	-0.528716
136	0xbee80238	-0.45314193
137	0x3d9f4e3a	0.077785924
138	0x3ea60c65	0.3243133
139	0x3e152fa2	0.14568952
140	0xbe920616	-0.28520268
141	0x3ee1d801	0.4411011
142	0xbd8eadf6	-0.06966774
143	0xbf17cd83	-0.5929796
144	0xbd773c0c	-0.06036
145	0x3f03a429	0.51422364
146	0x3e9217c6	0.28533763
147	0xbe19a14f	-0.1500294
148	0x3f28306f	0.65698904
149	0x3e9e19b3	0.30878982
150	0xbe5597c5	-0.20858677
151	0xbe3af613	-0.18257932
152	0x3ec443eb	0.38333067
153	0xbd586716	-0.052832685
154	0xbeb27044	-0.34851277
155	0xbf41e1d2	-0.757352
156	0xbe8c363d	-0.2738513
157	0x3e8baeb7	0.27281734
158	0xbf0aff19	-0.542955
159	0x3e779a0e	0.24179861
160	0xbdd04928	-0.101702034
161	0x3e550e42	0.2080622
162	0x3e6bf432	0.23042372
163	0xbf3eeea1	-0.7458287
164	0xbe78a178	-0.24280345
165	0xbe34fcdf	-0.17674588
166	0xbea29142	-0.31751448
167	0xbd4cc9ba	-0.04999707
168	0x3e8b5ffe	0.27221674
169	0xbe18bac0	-0.1491499
170	0x3eedf1bd	0.46473494
171	0x3b387127	0.0028143616
172	0xbe2e51f7	-0.17023455
173	0x3cdfd63b	0.027323833
174	0x3d1a2518	0.03763303
175	0xbec964b1	-0.39334634
176	0xbe60ca7b	-0.2195224
177	0x3e8b4631	0.2720199
178	0x3e846529	0.2585843
179	0x3e7eb933	0.24875335
180	0x3ea53dc9	0.322737
181	0x3ea952bf	0.33070943
182	0x3e87c04f	0.26513907
183	0x3e3dd2e7	0.18537484
184	0x3e706e8d	0.23479672
185	0xbecaaff8	-0.39587379
186	0x3b4e09e1	0.0031438994
187	0xbe024e41	-0.12725164
188	0x3d5fdee1	0.054655913
189	0x3e9b7d6a	0.3036912
190	0xbec87ead	-0.39159146
191	0xbe1fcc56	-0.15605292

ConvBnFusion_W_blocks.3.0.conv_pwl.weight_40 f4 [8, 48, 1, 1]
0	0x3ddb98ac	0.10722479
1	0x3d1a49fa	0.037668206
2	0x3ddef355	0.10886256
3	0xbea50e5f	-0.32237527
4	0xbbcab324	-0.006185906
5	0xbe8a43cd	-0.27004853
6	0xbe931168	-0.28724217
7	0x3e81c952	0.25348908
8	0x3d363c81	0.044491295
9	0xbf06476d	-0.5245274
10	0x3e628ff5	0.22125228
11	0xbcbbe93a	-0.02293836
12	0xbe3a27d3	-0.18179254
13	0x3db570cf	0.08859407
14	0x3e39bb68	0.18137896
15	0xbdc6257c	-0.09675118
16	0x3e556992	0.20841053
17	0xbe476bb4	-0.19474679
18	0xbe82f82e	-0.2557997
19	0xbcfc5f20	-0.030807078
20	0x3d44290a	0.0478907
21	0x3e167a77	0.14695154
22	0x3e207214	0.15668517
23	0xbde5354c	-0.11191806
24	0xbd52cdeb	-0.05146591
25	0xbd7ca64b	-0.061682027
26	0x3ef67f6c	0.4814409
27	0xbda77335	-0.08176271
28	0x3cc3e879	0.023914563
29	0xbe3480c0	-0.17627239
30	0x3e3b000e	0.1826174
31	0xbe9e60af	-0.3093314
32	0xbe6894ff	-0.22713087
33	0xbca77902	-0.020443443
34	0x3d4ca535	0.04996224
35	0x3cd3e561	0.025866212
36	0x3d859d86	0.06524186
37	0x3e76d246	0.2410365
38	0x3b639aa2	0.003472962
39	0xbe374ef5	-0.17901213
40	0x3e85bd0d	0.26120797
41	0x3d0199b1	0.031640712
42	0xbdea7e33	-0.11449852
43	0x3e8f01f5	0.2793118
44	0x3e32bcbb	0.17454807
45	0x3d31311e	0.043259732
46	0x3e86c667	0.26323244
47	0x3e577b77	0.21043192
48	0x3d84b35b	0.06479522
49	0x3e8549c5	0.26032844
50	0x3e84253f	0.25809667
51	0x3f094a43	0.5362894
52	0x3e53d387	0.2068616
53	0xbc25e865	-0.010126208
54	0xbe881611	-0.26579335
55	0xbe992509	-0.29911068
56	0xbf2ef17d	-0.6833723
57	0x3ef95f7f	0.4870567
58	0xbc3912c5	-0.011295979
59	0xbea2e247	-0.3181326
60	0xbf075cdc	-0.5287607
61	0xbc83340c	-0.016016029
62	0x3ee0a7c2	0.4387799
63	0xbebe2ad7	-0.3714206
64	0xbd4b4ebe	-0.04963564
65	0xbe3dc216	-0.18531069
66	0x3dde63f6	0.1085891
67	0x3e98dffc	0.29858387
68	0x3d07591c	0.033043966
69	0xbd8e3eab	-0.06945547
70	0xbf0adbb0	-0.54241467
71	0x3e429322	0.19001439
72	0x3e0ff199	0.14057006
73	0x3e53c4b9	0.20680512
74	0x3ecf0d98	0.4044006
75	0xbe37f644	-0.17965037
76	0xbe8fcbc5	-0.2808515
77	0xbe8b062a	-0.2715314
78	0x3eb85de0	0.3600912
79	0x3f0b3dfd	0.5439146
80	0x3d3e1961	0.046410922
81	0x3c71ff5f	0.014770358
82	0xbee75858	-0.45184588
83	0x3e804d58	0.2505901
84	0xbbb48467	-0.0055089477
85	0x3e44e211	0.19226862
86	0xbe1e77bd	-0.15475364
87	0xbe6ae131	-0.22937466
88	0xbdd41280	-0.10355091
89	0xbd8fa60e	-0.07014094
90	0xbe7fb3c6	-0.24970922
91	0x3e2ab85f	0.16671894
92	0x3dab6b72	0.08370103
93	0xbe0d49fc	-0.13797754
94	0x3dc61945	0.096727885
95	0x3e7f3756	0.24923453
96	0xbe9fccd5	-0.31210962
97	0x3e3cbe65	0.18432005
98	0xbe83d26c	-0.25746477
99	0x3f11a6f3	0.5689537
100	0x3ef295fb	0.4738005
101	0xbe34b746	-0.17648038
102	0xbe321d79	-0.17394055
103	0x3dda4186	0.10657029
104	0x3e46a4ad	0.19398756
105	0xbe44a956	-0.19205222
106	0x3d32e7af	0.043677982
107	0x3e136271	0.14393021
108	0xbe5aa7a0	-0.21353006
109	0xbe881df2	-0.26585346
110	0x3bdaf08e	0.0066815084
111	0xbe9e0608	-0.30863976
112	0xbcde60bb	-0.027145734
113	0xbccfd033	-0.025367832
114	0xbe6094ed	-0.2193181
115	0xbec95668	-0.39323735
116	0xbdc8617e	-0.0978422
117	0xbe5f0912	-0.21780804
118	0x3f037da6	0.513636
119	0x3e85b580	0.26115036
120	0x3da3a7b8	0.07990974
121	0xbed19067	-0.40930483
122	0x3e7c41ff	0.2463455
123	0x3d436ea9	0.047712956
124	0x3ebbd0d9	0.36682776
125	0x3e281d34	0.1641739
126	0xbd418e90	-0.0472551
127	0xbe8e52cf	-0.27797553
128	0x3ec91b62	0.39278704
129	0xbdbb8760	-0.0915668
130	0xbe2c1382	-0.16804317
131	0x3dd634be	0.104592785
132	0x3e17efe6	0.14837608
133	0xbedfca4a	-0.43709022
134	0x3dc9bd21	0.098505266
135	0x3e9dae80	0.30797195
136	0x3e598a9a	0.21244279
137	0x3d87127e	0.06595324
138	0x3c14ad46	0.009074515
139	0x3d609574	0.05483003
140	0x3f05f795	0.52330905
141	0xbd5fb730	-0.05461806
142	0xbe12988b	-0.14316003
143	0x3eae9c09	0.3410342
144	0x3e9ff76a	0.3124345
145	0x3d7ca478	0.061680287
146	0x3dfe6c63	0.12423017
147	0xbe8dc36c	-0.27688158
148	0xbe48690f	-0.19571327
149	0xbd6a8443	-0.05725504
150	0x3e706fea	0.23480192
151	0x3e07216e	0.13196346
152	0xbe8be502	-0.27323157
153	0xbef74cca	-0.48300773
154	0xbe78e370	-0.2430551
155	0xbdbcff89	-0.09228427
156	0xbeb92c9f	-0.36166856
157	0xbc087785	-0.008329277
158	0x3d48773f	0.048941847
159	0xbc2af85c	-0.01043519
160	0xbeb647a7	-0.3560154
161	0x3e094dd0	0.1340859
162	0xbe60113a	-0.21881571
163	0x3cddfc48	0.027097836
164	0x3d5c4414	0.05377586
165	0x3e60a87b	0.2193927
166	0x3e34da72	0.17661455
167	0x3e4180e0	0.18896818
168	0xbe07bc39	-0.13255395
169	0x3e592519	0.21205558
170	0xbe0ea66b	-0.13930671
171	0x3e38c7fe	0.18045041
172	0x3e69e214	0.22840148
173	0x3e8e4491	0.27786687
174	0xbea0579b	-0.31316838
175	0x3df31de7	0.11870938
176	0x3e20c5d5	0.15700467
177	0xbe8db6e5	-0.276786
178	0xbe2c4b74	-0.16825658
179	0xbde92675	-0.11384288
180	0xbe6f5ea2	-0.23375943
181	0xbdbc24e7	-0.09186726
182	0xbe1a0f27	-0.15044843
183	0x3baa4c43	0.0051970794
184	0x3c5b22b6	0.013374975
185	0xbe28d53b	-0.16487591
186	0x3eb994d5	0.36246362
187	0xbca638c9	-0.02029075
188	0x3cd8cf8a	0.02646615
189	0xbe352ca6	-0.17692813
190	0x3e960df2	0.29307514
191	0x3ea416c1	0.3204861
192	0xbe093d6e	-0.1340234
193	0x3e30c67b	0.17263214
194	0x3e1c8585	0.15285309
195	0x3d8e6d1a	0.06954403
196	0xbdafa46a	-0.08576281
197	0xbdb4de21	-0.0883143
198	0x3da5e5cb	0.0810047
199	0x3e16e16a	0.14734426
200	0x3ecce963	0.4002181
201	0x3c0031b6	0.007824352
202	0xbead8073	-0.3388706
203	0xbd3b0b14	-0.04566486
204	0x3de92877	0.11384671
205	0xbe8c1b1b	-0.2736443
206	0x3e7c061e	0.24611709
207	0x3d44ac9c	0.048016176
208	0xbea605d9	-0.32426336
209	0x3cbf919a	0.023384858
210	0xbe4e976b	-0.20174949
211	0xbe1ffae5	-0.15623052
212	0xbba2312a	-0.0049497085
213	0xbe88d12a	-0.2672208
214	0x3db4307e	0.08798312
215	0x3e4e889a	0.20169297
216	0xbf0f1dd0	-0.55904865
217	0x3e0eb48b	0.13936059
218	0xbe809d14	-0.2511984
219	0xbc415064	-0.011798952
220	0xbe773510	-0.24141335
221	0x3e1a06b4	0.1504162
222	0x3d1c6602	0.03818322
223	0x3e59796c	0.21237725
224	0xbdc63f7c	-0.096800774
225	0xbd30c91c	-0.043160543
226	0xbe9a57fa	-0.30145246
227	0x3c178d18	0.009249948
228	0xbd779e87	-0.060453918
229	0x3c7116eb	0.014714937
230	0x3e13ad6d	0.14421625
231	0xbf132657	-0.57480377
232	0xbe4bcbc4	-0.19901949
233	0xbe608116	-0.21924242
234	0xbe376161	-0.17908241
235	0x3cd74c4b	0.026281497
236	0x3e7a8b28	0.24467146
237	0x3eb111d8	0.34583926
238	0x3eedafe5	0.4642326
239	0xbe9363a8	-0.2878697
240	0xbdb2931e	-0.087194666
241	0xbe8ed5ea	-0.27897578
242	0x3ead4dd4	0.3384844
243	0x3d01f31e	0.031725995
244	0x3eb42022	0.35180765
245	0x3de15a77	0.11003583
246	0x3d297873	0.041374635
247	0xbe4bb369	-0.19892658
248	0x3d2f8b67	0.042857554
249	0xbdadfc60	-0.08495402
250	0x3e92d56c	0.28678453
251	0xbe7beac9	-0.24601282
252	0xbe0b7637	-0.13619314
253	0xbd58cdb5	-0.052930553
254	0xbda119fc	-0.07866284
255	0x3e0b840b	0.13624589

ConvBnFusion_W_blocks.1.0.conv_pwl.weight_10 f4 [8, 32, 1, 1]
0	0x3e2c0902	0.16800311
1	0x3e30aafe	0.17252728
2	0x3e82edcc	0.2557205
3	0x3e981313	0.29702052
4	0x3e021940	0.12704945
5	0x3e1a90bc	0.15094274
6	0xbd1548ef	-0.036446508
7	0x3e1bdc82	0.15220836
8	0xbd04c512	-0.032414503
9	0x3bad624b	0.0052912585
10	0x3e3500d4	0.17676097
11	0xbe0aef81	-0.13567926
12	0x3e42d877	0.19027887
13	0x3df46b5d	0.119345404
14	0x3e912925	0.28351703
15	0xbe76d4a3	-0.24104552
16	0x3dad63d3	0.084663056
17	0xbdb24617	-0.08704775
18	0xbda08159	-0.07837171
19	0x3e639266	0.22223815
20	0x3e6b5648	0.22982132
21	0xbea87939	-0.32904986
22	0xbef1ff50	-0.472651
23	0xbd6d5a50	-0.057947457
24	0xbe1d077a	-0.15334883
25	0x3e037b58	0.1284002
26	0xbcfef4e6	-0.031122636
27	0x3e6a9ea8	0.22912085
28	0x3ec183bd	0.3779582
29	0x3ddf8e9b	0.10915872
30	0x3d04311d	0.0322734
31	0x3ca5ed08	0.020254627
32	0x3d856fa1	0.06515432
33	0x3ecc13c7	0.3985884
34	0xbf118f1c	-0.5685899
35	0xbdff37cd	-0.12461815
36	0x3dae6c08	0.08516699
37	0xbf227bc5	-0.6347011
38	0xbec82490	-0.39090395
39	0xbf36a393	-0.71343344
40	0x3e62a38c	0.221327
41	0x3efc300d	0.4925541
42	0xbd033868	-0.032036215
43	0xbb8f38f3	-0.0043708025
44	0x3d4a99a2	0.049462922
45	0xbe3bda69	-0.18345036
46	0x3e0d9f27	0.13830243
47	0x3ddbed9a	0.10738678
48	0xbdd72319	-0.10504741
49	0xbd4e29e2	-0.05033291
50	0xbbd0dbbc	-0.0063738506
51	0x3eaf8253	0.34279117
52	0xbd5a133a	-0.053240992
53	0xbeb6fffa	-0.3574217
54	0xbe184c24	-0.14872795
55	0x3e3ce093	0.18445043
56	0xbbf95581	-0.00760907
57	0xbee5dbd2	-0.44894272
58	0x3dd251e9	0.10269529
59	0xbc0ed0df	-0.008716791
60	0xbee6a9da	-0.4505146
61	0x3eb940cd	0.36182252
62	0x3e5bd063	0.21466212
63	0xbccfb728	-0.02535589
64	0x3e6dfe97	0.2324165
65	0x3e9069e9	0.28205803
66	0xbe5db324	-0.21650368
67	0xbc844b2f	-0.016149132
68	0x3e6e6a16	0.23282656
69	0xbe52d8fa	-0.20590582
70	0xbaeb802a	-0.0017967273
71	0xbdf610e6	-0.12014942
72	0x3ec72b10	0.38900042
73	0xbe6a0f37	-0.22857367
74	0x3ed54faf	0.41662356
75	0xbd5a6db9	-0.053327296
76	0xbd313394	-0.04326208
77	0xbe4c4870	-0.19949508
78	0x3d907ea6	0.07055406
79	0xbeda8081	-0.42676166
80	0xbdd439e8	-0.10362607
81	0xbd9be861	-0.07612682
82	0xbec4107d	-0.3829383
83	0xbdef0554	-0.11670938
84	0x3e8ea640	0.27861214
85	0x3d26c689	0.04071668
86	0xbef217ea	-0.4728387
87	0x3e07ddfd	0.13268276
88	0xbeb11ae0	-0.34590816
89	0xbeb6b7c0	-0.35687065
90	0xbc9d7337	-0.019219978
91	0x3ef08cf8	0.4698255
92	0xbe005ef2	-0.12536219
93	0xbeaa8dfc	-0.3331145
94	0xbe7d5bfa	-0.24742118
95	0xbe368697	-0.1782478
96	0x3f4af4e7	0.7927994
97	0xbec61ece	-0.38695377
98	0xbe3e8d34	-0.18608552
99	0xbede9733	-0.4347473
100	0xbd996b46	-0.07491164
101	0x3de12065	0.10992507
102	0x3d1259b0	0.035730064
103	0x3ce4d195	0.027931968
104	0x3e3253f5	0.1741484
105	0xbdaf3ee2	-0.08556916
106	0x3e99d175	0.30042616
107	0xbe2616d1	-0.16219641
108	0x3b7ed143	0.0038882054
109	0x3ec33ced	0.3813242
110	0xbe1082be	-0.14112374
111	0x3ed836ce	0.42229313
112	0xbeba825e	-0.36427587
113	0xbdb093cb	-0.08621939
114	0x3ca0fa11	0.019650491
115	0xbe96fd57	-0.29490158
116	0xbdab81dd	-0.08374379
117	0x3ddec362	0.1087711
118	0xbd07ca44	-0.03315188
119	0xbeb30a42	-0.34968764
120	0x3ed17ed5	0.40917078
121	0x3e4cb604	0.19991308
122	0x3dc8ff1b	0.098142825
123	0x3e9e57fe	0.30926508
124	0xbe92a38a	-0.28640395
125	0xbb59c6f1	-0.003323015
126	0x3dca5251	0.09878982
127	0xbe186c04	-0.14884955
128	0x3d5b952a	0.05360905
129	0xbdaffd35	-0.08593217
130	0xbd6e1f4f	-0.058135327
131	0xbc43a64f	-0.0119415065
132	0x3e8e4641	0.27787974
133	0xbcf6eb6a	-0.030141551
134	0xbe731afb	-0.23740761
135	0xbb8b512b	-0.0042516193
136	0x3c2fd51f	0.010731964
137	0x3d4f4880	0.05060625
138	0xbd14db3c	-0.03634189
139	0x3f6cd7bc	0.92516685
140	0xbf296285	-0.66165954
141	0xbd01fed5	-0.031737167
142	0xbd1d657c	-0.03842686
143	0xbdb8a57a	-0.09015937
144	0x3e883787	0.26604864
145	0x3f0d552d	0.5520809
146	0xbe15fc6a	-0.1464707
147	0xbe80c4a4	-0.25150025
148	0xbd82688d	-0.06367598
149	0x3d817fd0	0.063232064
150	0x3ebacac3	0.3648282
151	0x3ea7516d	0.3267931
152	0x3d850bc2	0.06496383
153	0xbdb82b1f	-0.089926
154	0x3ede8428	0.43460202
155	0xbc89a2cf	-0.016801266
156	0xbd6cd05f	-0.057815906
157	0x3cee85cc	0.029116534
158	0x3e331873	0.17489795
159	0xbf42bd59	-0.7607017
160	0x3e5c7fda	0.21533147
161	0xbe8623ce	-0.26199192
162	0xbd8383f6	-0.06421654
163	0xbe2e8017	-0.1704105
164	0x3daf4099	0.08557243
165	0xbd297a45	-0.04137637
166	0xbdffe1b5	-0.12494222
167	0xbe1166d7	-0.14199387
168	0xbef195e0	-0.47184658
169	0x3e6f94c9	0.23396601
170	0x3d8b6e5b	0.06808158
171	0x3e35b298	0.1774391
172	0xbe0db599	-0.13838805
173	0x3e4b7b90	0.19871354
174	0x3e330d3d	0.17485519
175	0x3e1476f8	0.14498508
176	0xbf0267c9	-0.50939614
177	0x3e0a90d9	0.13531817
178	0xbe9112e1	-0.28334716
179	0x3e3bd899	0.18344344
180	0x3ce4643d	0.027879829
181	0x3b80fe94	0.003936598
182	0xbdea2f37	-0.11434787
183	0x3db77a72	0.089589015
184	0x3dede459	0.116158195
185	0x3e28f170	0.16498351
186	0x3de1e6d7	0.11030357
187	0x3dc6a7a9	0.096999474
188	0xbdf51bb8	-0.119681776
189	0xbd6281db	-0.05529962
190	0x3e26ebf4	0.16300946
191	0xbd031bc3	-0.032008898
192	0x3e91c88e	0.28473324
193	0xba586254	-0.0008254398
194	0xbd7f3df1	-0.06231493
195	0x3d5aedab	0.053449314
196	0xbe6cfecc	-0.23144072
197	0xbdb4a95d	-0.08821366
198	0x3e9aa93b	0.30207238
199	0xbdfa13e1	-0.12210823
200	0xbe181636	-0.14852223
201	0xbe911155	-0.28333536
202	0x3eab20b6	0.33423394
203	0x3d90c319	0.07068462
204	0x3b9803bb	0.0046391166
205	0xbd72e886	-0.059303783
206	0xbce40941	-0.027836444
207	0x3bd9d1a1	0.006647304
208	0xbeb80170	-0.35938597
209	0x3d7bbb9c	0.061458215
210	0x3d71789b	0.05895291
211	0xbe3a25f9	-0.18178548
212	0x3dc8f52b	0.09812387
213	0xbe4f2ef7	-0.2023276
214	0x3eaa06dc	0.33208358
215	0x3dc244b1	0.09485758
216	0xbe96b0d9	-0.294318
217	0xbd978e6b	-0.07400211
218	0xbe223a94	-0.15842658
219	0x3ec79366	0.38979644
220	0xbbfaf996	-0.0076591475
221	0x3e92a7ab	0.28643546
222	0xbea2faa2	-0.31831843
223	0x3e6b8716	0.2300075
224	0xbe082aef	-0.13297628
225	0x3eb87517	0.36026832
226	0xbdebc290	-0.11511719
227	0xbe853856	-0.26019543
228	0x3ea4ba77	0.3217351
229	0x3e669392	0.22517231
230	0x3bd9d1b5	0.0066473135
231	0x3e030a54	0.12796909
232	0x3eb5b134	0.35486758
233	0xbd99b2a2	-0.07504775
234	0xbe6f6007	-0.23376475
235	0x3e05f8d5	0.13083203
236	0xbdd0bca4	-0.1019223
237	0x3ed1fa28	0.41011167
238	0xbeae5be5	-0.34054485
239	0x3ecc9e08	0.39964318
240	0xbe62080a	-0.22073379
241	0x3cb07720	0.021541178
242	0xbe912c6a	-0.28354198
243	0xbe915435	-0.28384557
244	0xbf3c22de	-0.73490703
245	0xbeb3f31a	-0.3514641
246	0xbefe2827	-0.4964001
247	0x3e946543	0.28983507
248	0xbeb5872a	-0.35454684
249	0x3ebbb239	0.3665941
250	0xbdd485d7	-0.103770904
251	0xbe866ba9	-0.26254013
252	0xbe61d050	-0.22052121
253	0x3f38c173	0.7217018
254	0xbe8950e0	-0.26819515
255	0x3cbdc232	0.023163889

ConvBnFusion_W_blocks.2.1.conv_pw.weight_24 f4 [24, 8, 1, 1]
0	0xbd275aba	-0.040858008
1	0xbe391c50	-0.18077207
2	0xbd892259	-0.066960044
3	0x3e228b5a	0.15873471
4	0xbd8f4bd0	-0.06996882
5	0xbb37d7e9	-0.0028052276
6	0x3d5e39e8	0.054254442
7	0x3cc1c455	0.023653189
8	0x3ed749aa	0.4204839
9	0xbe00fee9	-0.1259724
10	0xbf0f5803	-0.5599367
11	0xbe807833	-0.25091705
12	0xbdae6ec6	-0.08517222
13	0x3e2e771d	0.17037626
14	0x3c678e9d	0.014133123
15	0xbca70bb7	-0.020391328
16	0x3d319785	0.04335739
17	0x3d40008c	0.04687552
18	0xbd326d75	-0.043561418
19	0xbe02c8d4	-0.12771922
20	0xbc4bc299	-0.012436532
21	0xbe7543bc	-0.2395162
22	0x3d3bff54	0.045897797
23	0x3e030fd6	0.1279901
24	0x3de19c27	0.11016112
25	0xbc6a068d	-0.014283788
26	0xbe70cd0b	-0.23515718
27	0xbd77fd70	-0.06054443
28	0xbceb909e	-0.028755482
29	0x3e23ffc2	0.16015533
30	0xbe084a22	-0.1330953
31	0xbeb308f6	-0.34967774
32	0x3e738561	0.23781349
33	0xbe32a00d	-0.17443867
34	0x3e00291a	0.12515679
35	0xbd6f465d	-0.058416713
36	0x3e011437	0.12605368
37	0xbe0710a0	-0.13189936
38	0xbdffecd5	-0.12496344
39	0xbdc2b1c2	-0.09506561
40	0x3e3e96b4	0.18612176
41	0xbda120e2	-0.078676
42	0xbe8e64bf	-0.27811238
43	0xbd9fa1c9	-0.0779453
44	0x3e08d269	0.13361515
45	0x3e4640e5	0.19360693
46	0x3e25148f	0.16121124
47	0x3cf7a32d	0.030229175
48	0xbed0a620	-0.40751743
49	0xbe99e67d	-0.3005866
50	0x3c9de608	0.019274727
51	0xbed17914	-0.40912688
52	0x3ec12bea	0.37728816
53	0x3e806ca1	0.25082877
54	0xbd8118c5	-0.063035525
55	0x3eac68d6	0.33673733
56	0xbd28930e	-0.041155867
57	0xbe273d93	-0.16332082
58	0x3e548d3f	0.20757006
59	0x3dadffc4	0.08496049
60	0xbd8fbf71	-0.070189364
61	0x3e292a51	0.16520049
62	0x3b7f1b14	0.0038926052
63	0x3e59145c	0.21199173
64	0xbe47d02c	-0.19513005
65	0xbea4b6e5	-0.32170787
66	0x3ec178ae	0.37787384
67	0x3e46283a	0.19351283
68	0xbe3efbb1	-0.186507
69	0x3f312380	0.69194794
70	0xbeee8948	-0.46589112
71	0x3edca342	0.43093306
72	0x3e1594da	0.14607564
73	0x3eabb7d5	0.3353869
74	0xbd2d35e1	-0.04228771
75	0xbe850c82	-0.25986105
76	0x3ebac97e	0.3648185
77	0x3dc559c7	0.09636264
78	0xbec7d7c4	-0.39031804
79	0xbda52f5f	-0.08065676
80	0xbe49276a	-0.19643942
81	0xbc074e4e	-0.008258415
82	0x3d93acb5	0.072106756
83	0xbc23213b	-0.009956653
84	0x3e0b4ea4	0.13604218
85	0x3c8b3d93	0.016997134
86	0xbdf81467	-0.121132664
87	0xbe893830	-0.2680068
88	0x3e377eae	0.17919418
89	0xbd200548	-0.039067537
90	0xbe240051	-0.16015746
91	0x3dabca3a	0.08388181
92	0x3db1dfdc	0.08685276
93	0xbe2331c3	-0.15936951
94	0xbe2d2765	-0.16909559
95	0x3cea8fca	0.028633017
96	0x3d037770	0.032096326
97	0xbe26576b	-0.16244285
98	0x3ca16a90	0.019704133
99	0x3d71ceb2	0.05903501
100	0x3de9db00	0.11418724
101	0xbdab4357	-0.083624534
102	0x3cb9d639	0.022685157
103	0x3e0897b6	0.13339123
104	0xbcafe6b8	-0.02147232
105	0xbe37c712	-0.17947033
106	0x3e1b76d1	0.15182044
107	0xbd53a530	-0.051671207
108	0x3d730bd8	0.059337467
109	0x3c7952fb	0.015217538
110	0x3dc33d15	0.09533135
111	0x3bc000df	0.005859479
112	0xbe00dbd3	-0.12583856
113	0x3e6c096f	0.23050474
114	0x3dc4440e	0.09583293
115	0x3dd8fdc0	0.10595274
116	0x3e1ac630	0.15114665
117	0xbed7ea99	-0.4217117
118	0xbed92983	-0.42414483
119	0x3d466963	0.04844035
120	0x3dd96141	0.10614253
121	0xbe3e2db2	-0.18572119
122	0x3e1ede41	0.1551447
123	0x3e6c476b	0.23074119
124	0xbd4ccbfc	-0.049999222
125	0xbec77193	-0.38953838
126	0x3d243c6d	0.04009669
127	0x3d572bdb	0.05253206
128	0x3dbd46e9	0.09242041
129	0x3e866d0c	0.2625507
130	0xbd867853	-0.06565919
131	0xbea7e79b	-0.32793888
132	0x3c376229	0.011192837
133	0xbde96549	-0.11396272
134	0xbc7d160b	-0.01544715
135	0x3e940a46	0.28914088
136	0x3f2e4892	0.68079484
137	0x3db96c93	0.09053912
138	0xbf0c282a	-0.54748785
139	0xbea41a9b	-0.32051548
140	0x3d129125	0.03578295
141	0xbec6c99c	-0.3882569
142	0xbf353b84	-0.7079394
143	0xbf05022c	-0.5195644
144	0xbca14df3	-0.01969049
145	0xbb2d2c59	-0.0026424138
146	0x3b0f8d03	0.0021904118
147	0x3e76af25	0.2409025
148	0x3deeca76	0.1165971
149	0xbe2c3759	-0.16817988
150	0x3d51b413	0.051197123
151	0xbe52d793	-0.20590048
152	0x3d915d77	0.07097905
153	0xbe83a5cf	-0.2571244
154	0x3d066050	0.032806695
155	0x3db1327c	0.08652207
156	0x3d9ca604	0.076488525
157	0x3c8a9343	0.016915923
158	0xbd6f55e6	-0.05843153
159	0x3df51b99	0.119681545
160	0xbd8facc9	-0.07015378
161	0xbe25eabf	-0.1620283
162	0xbe8b4a8b	-0.2720531
163	0x3e6615c8	0.22469246
164	0xbd3630b5	-0.044480044
165	0xbe1afd79	-0.15135755
166	0x3e541284	0.20710188
167	0xbc914410	-0.01773265
168	0xbcc14b71	-0.023595544
169	0x3cb7ec22	0.022451464
170	0x3eab065c	0.3340329
171	0xbdf142f5	-0.11780349
172	0x3eafe8a3	0.34357175
173	0xbf317664	-0.69321275
174	0x3e59ddeb	0.21276061
175	0x3e083f01	0.13305284
176	0x3d073271	0.03300709
177	0xbb2b7b6d	-0.0026166097
178	0x3d31406a	0.04327432
179	0xbe22aa41	-0.15885259
180	0x3e09077c	0.13381761
181	0xbc9b0439	-0.018922912
182	0x3df557d3	0.11979642
183	0xbe7393dc	-0.23786873
184	0xbcaa7d98	-0.02081184
185	0xbdd66955	-0.10469309
186	0xbde42adb	-0.111409865
187	0x3d32a60f	0.043615397
188	0x3e18917c	0.14899248
189	0xbe2fa318	-0.17152059
190	0xbe032d47	-0.1281024
191	0xbe15c286	-0.14624986
